trained_weights.pth (torch_old, 28391 bytes, 6 tensors)

fc1.weight f4 [64, 37]
000000 59 fd 3a 3d 92 34 82 bd 37 10 3c 3d 49 a2 dc bd
       0.045651767 -0.06357683 0.0459139 -0.10773141
000010 ac a6 18 be eb ac 5d 3c 60 1c b7 3d 08 db a7 3d
       -0.1490733 0.013529996 0.08940959 0.08196074
000020 36 68 aa 3d eb 5f 0a 3c f4 53 b2 3c 2b 97 34 3b
       0.08320658 0.00844572 0.021768548 0.0027555923
000030 84 65 6f be 06 78 0f be c7 fe dc be 3c fa 19 3d
       -0.23378569 -0.14010629 -0.4316313 0.037592158
000040 42 53 5c bd 65 e5 a7 3d 05 46 99 3d 2c 1c 2f be
       -0.05379034 0.081980504 0.07484058 -0.1710059
000050 f3 18 fd 3d 7c 67 7f 3d db a6 b0 3d 05 00 ae 3d
       0.12358274 0.06235455 0.08625575 0.084960975
000060 56 a3 f4 3c 39 27 74 3c 83 8c 5c 3e 33 60 de bd
       0.02986304 0.01490193 0.21537976 -0.10858192
000070 d3 fe 2f be 22 20 c8 bd 6f 0f f4 3b 69 d9 a4 bd
       -0.17187051 -0.09771754 0.007448129 -0.0804928
000080 9d 5c 05 3d 82 14 82 bd 7c a9 01 be 96 4f 89 be
       0.032559026 -0.06351568 -0.1266231 -0.26818532
000090 80 ab f5 bc 13 f9 7c 3e ce 1e dd 3d 57 4d 14 3e
       -0.029989004 0.2470439 0.10796891 0.14482628
0000a0 ef b5 a3 bd 16 57 2c be 29 80 1a 3e 3e 9f 90 be
       -0.079936855 -0.16830096 0.15087952 -0.28246492
0000b0 90 e2 c0 bd 37 a2 9c be 39 63 62 bf b9 7f 38 bc
       -0.09418213 -0.3059251 -0.8843265 -0.01126092
0000c0 55 33 74 bd a7 97 b2 3d e1 86 45 3e 09 f2 96 3c
       -0.059619267 0.08720332 0.19289733 0.018425958
0000d0 4e f3 f3 3d 7b 0e 16 3e e7 e6 b3 bd d1 7b 03 3e
       0.11911641 0.14653961 -0.087842755 0.12840201
0000e0 98 3e 26 be f4 f8 2f be 84 c7 2b bd 38 11 1c 3d
       -0.16234815 -0.17184812 -0.04193832 0.03810236
0000f0 e7 2a eb bc e9 94 4a 3e b7 b0 49 be 86 76 86 3d
       -0.02870698 0.19783367 -0.19696318 0.06565575
000100 e6 16 3a 3e 23 1f 84 3d 42 b8 b4 3d 1d 4c a7 bc
       0.18172798 0.06451251 0.08824207 -0.020422036
000110 93 34 3e 3e 6b cc 28 3e 46 ce c0 3c 57 eb ad bd
       0.18574743 0.1648423 0.023535859 -0.08492153
000120 a2 01 4b bd 12 17 5a bc da 49 12 bb a7 6d 25 3e
       -0.049562104 -0.013311164 -0.002232185 0.1615511
000130 89 75 2f 3e 88 fa c8 3c 81 28 1b 3d 16 65 23 bf
       0.1713468 0.024533525 0.037880424 -0.6382612
000140 79 1f cf 3d 1b c2 65 3e ee 05 e7 3d c2 a6 9b be
       0.10113425 0.22437327 0.11280428 -0.30400664
000150 11 33 b6 bc 55 83 f6 3d 67 bb 80 bd 0b 35 35 be
       -0.022241147 0.12036768 -0.06285744 -0.17696016
000160 71 f4 f2 3d be e1 e7 bd 25 69 84 3d 0f 1d 75 bc
       0.1186303 -0.11322354 0.06465367 -0.014960541
000170 a0 21 a4 3e fa e3 af 3d a6 16 19 bf b1 75 d2 3d
       0.32056904 0.08588405 -0.59800184 0.10276354
000180 ef 69 b2 3d d4 6e 93 3d 38 3d 4b be fc 24 a3 be
       0.087116115 0.07198873 -0.19847572 -0.31864154
000190 d8 dd 59 3e 49 fc f2 3d 6d c7 26 3d 72 5e fa 3c
       0.21276033 0.11864526 0.04071753 0.030562613
0001a0 50 fd 9b be f6 f6 ae 3d b0 f7 61 bc 01 38 e9 bd
       -0.304667 0.08543198 -0.013791963 -0.11387635
0001b0 ad 25 81 be 90 eb 06 bd 76 eb ba 3b 70 cc c8 3e
       -0.25224057 -0.032939494 0.0057043387 0.39218473
0001c0 cf 7e 02 bf 23 b2 16 be a7 0c e4 be 38 36 b4 bf
       -0.50974745 -0.14716391 -0.44540903 -1.4079046
0001d0 27 03 85 bc e8 8f 30 bd 82 39 94 3b c9 5c e3 bd
       -0.016236855 -0.04310599 0.004523457 -0.11101682
0001e0 72 c9 04 be 66 35 4f 3d 18 50 93 bc 9b 78 4c bd
       -0.1296747 0.050588034 -0.017982528 -0.049919706
0001f0 27 9c 29 bd 9e f7 26 bc dc a5 fd bd 6f 2e 93 3d
       -0.041408684 -0.0101908725 -0.12385151 0.07186591
000200 b0 4d 04 be 3c b5 a2 3d 22 7e 9f bd e9 d5 09 3d
       -0.1292026 0.07944724 -0.0778773 0.033651266
000210 6e cd 9d bc 51 9d 85 3d a8 6a c3 3d 76 d4 d7 3c
       -0.019262996 0.06524146 0.095418274 0.026346426
000220 7f 44 26 3d e5 c7 03 3d 6e 5b df 3d 92 30 07 3e
       0.040592667 0.032173056 0.10906111 0.13202122
000230 0b 49 7a 3e 9d 64 a8 3d 97 55 f8 3d 0b 2d 37 3b
       0.24441926 0.082223155 0.121257 0.0027950432
000240 37 60 1c 3d 1a c8 33 bd 35 30 56 3d 80 1e 6b 3c
       0.038177695 -0.043892004 0.052292068 0.0143505335
000250 67 2d a8 bc bc 91 fe be 05 f4 c8 bd 9a db 6b be
       -0.020529462 -0.49720562 -0.09812168 -0.2303299
000260 13 b3 55 bf e5 da b9 bd 15 d2 62 be 3f 6a 61 3e
       -0.8347637 -0.09074954 -0.22150452 0.22013186
000270 b5 4b aa be 5c 7a ca be da 94 ec be c5 98 b2 be
       -0.33260885 -0.39546478 -0.46207315 -0.3488218
000280 47 8c 2f 3e d6 9e b8 be a5 01 07 bf 77 b7 92 bd
       0.17143355 -0.36058682 -0.52736884 -0.071638994
000290 d2 5b fa be d5 1d b8 bd 3c 84 90 be a9 87 a7 3d
       -0.48898178 -0.08990065 -0.28225887 0.08180172
0002a0 75 7c c5 be 46 d7 02 be e2 47 7e 3e 16 ff 10 bf
       -0.38571516 -0.12777433 0.24832109 -0.5663923
0002b0 06 1f 4c bd 26 65 99 3c 80 3a 92 be a2 b1 1e 3e
       -0.049834274 0.01872499 -0.28560257 0.15497449
0002c0 0b 33 9e be 95 b4 47 bf 8b ce e6 3b 98 81 8f 3d
       -0.30898318 -0.7800992 0.007043665 0.0700714
0002d0 94 07 8b 3d 36 64 83 be 78 d7 03 bd 6d 55 09 3e
       0.06788555 -0.25662392 -0.03218791 0.13411494
0002e0 16 c7 af bc e6 b9 ff bd ef d5 6e bc ab 91 17 3e
       -0.021457236 -0.12486629 -0.014577373 0.14801662
0002f0 ca a3 c3 3b 4b 00 10 3d 12 7d d4 3d cd 9d ad 3e
       0.005970453 0.03515653 0.10375418 0.33909455
000300 f6 b1 8f be a0 30 7f bd e0 35 09 bf ce 7c 03 bd
       -0.2806546 -0.06230223 -0.5359783 -0.032101445
000310 cd 13 8b be cd 5f 8d 3d 69 90 0a 3d c9 b9 2f be
       -0.27163544 0.06903038 0.033829127 -0.17160715
000320 6c ff 89 3d f5 26 db 3d d3 26 2a be c3 94 9f bc
       0.06738171 0.1070079 -0.16616373 -0.019480115
000330 cf 32 04 3e 81 7f 8f 3d ec c7 88 3d 99 ab e0 3d
       0.12910007 0.07006741 0.06678757 0.1097023
000340 7f d4 88 3e 8c 73 d6 3d 92 27 56 3d 0b aa f8 bd
       0.26724622 0.104712576 0.05228383 -0.12141808
000350 51 8f c1 3c 38 d6 12 3e 1f 21 8a 3b 7b 5e 46 3e
       0.023627909 0.1433953 0.004215374 0.19371979
000360 3d 4d 01 bf 55 a1 9c bd 4b f0 26 be 2c e1 49 bf
       -0.5050848 -0.07647959 -0.16302602 -0.7885921
000370 aa 88 ef 3c 75 69 a2 bb 32 4f bd 3e 37 1c fe be
       0.029239971 -0.004956419 0.36974484 -0.496309
000380 ba 5e f5 be b9 d5 e3 be bd 5f fa bf 83 1f e6 bd
       -0.47923833 -0.44498995 -1.9560467 -0.11236479
000390 0e bd e2 bd 27 45 84 bd f3 91 34 3d 33 87 8e 3e
       -0.110712156 -0.06458502 0.0440845 0.27837524
0003a0 57 11 8e bb 9d f6 86 3d 70 89 da 3d d9 96 54 3e
       -0.004335563 0.065900065 0.106707454 0.20760669
0003b0 85 d0 6f 3d b3 ce 5d bd 1b 71 86 bd c4 25 2b 3c
       0.05854847 -0.0541522 -0.06564542 0.010446016
0003c0 dd 71 f2 3c f6 20 96 3e 2b a6 70 bc 43 d8 0d 3e
       0.02959531 0.29322022 -0.014688055 0.13852029
0003d0 13 e8 22 bd d7 77 14 bd 59 df 7e 3d fc 72 61 be
       -0.039772104 -0.0362471 0.06222472 -0.2201652
0003e0 d9 c3 63 3c c8 76 aa ba ba 43 01 be be b0 ba 3d
       0.013901674 -0.001300537 -0.12623492 0.09115742
0003f0 2a 13 53 bd 98 b4 08 bd 48 8a 3c 3c 43 a3 a7 3d
       -0.05153195 -0.033375353 0.011507578 0.081854366

fc1.bias f4 [64]
000000 20 78 10 3e 67 20 12 bc 6d 99 22 be aa 7f 23 bd
       0.14108324 -0.008918858 -0.1587884 -0.03991667
000010 71 43 06 3e 34 b9 de bc 6d 5d cd bb c2 1b 89 3d
       0.13111664 -0.027187921 -0.0062672407 0.066947475
000020 f3 34 e8 3b 95 a9 d8 bd ce 17 da 3d 1c 3c b8 3d
       0.00708639 -0.1057922 0.10649072 0.0899584
000030 c3 c5 b4 3d 7f 90 4d 3e 6c 6d de bc 93 c8 bf bc
       0.088267826 0.20074652 -0.027151786 -0.02341107
000040 37 ae 7a 3d 59 a2 35 bd 4e 01 a3 3d 13 07 5e be
       0.0612013 -0.04434428 0.07959233 -0.21682386
000050 d3 97 7f bd 16 59 27 3d 61 3c b4 3d a3 ac 95 bd
       -0.06240065 0.040856443 0.08800579 -0.073083185
000060 2f 50 64 bd 4b 05 56 3e ea 18 76 bd 59 23 87 be
       -0.05574053 0.20900457 -0.060082354 -0.26394156
000070 35 a4 32 3e a0 98 08 3e 79 28 dc 3c f2 11 e0 bd
       0.17445453 0.13339472 0.026874768 -0.10940923
000080 4c f6 20 3e a2 36 ec bc 1f e1 0e be 63 62 23 3a
       0.15718955 -0.028834645 -0.13953064 0.00062326173
000090 0b 78 13 3d f7 35 e4 3d 75 63 66 bd 4c 95 cd bd
       0.036003154 0.111431055 -0.056247193 -0.10038242
0000a0 ec cd 73 be 6f 71 08 3d a4 fb 9f bd 96 45 35 3e
       -0.23809022 0.033311304 -0.078116685 0.17702326
0000b0 38 9a 79 bd 2e 0e ca bd 78 b7 36 bd 6f 53 05 be
       -0.06093809 -0.09865986 -0.044608563 -0.13020109
0000c0 fb ca 36 be 3e be 8f 3d 01 d9 9b be 8c 65 0f 3d
       -0.17850868 0.07018708 -0.30438998 0.035008952
0000d0 2e ea 8e bd 3c 5d 95 bc c1 1d 1d be 85 79 85 3d
       -0.0697826 -0.018232934 -0.15343381 0.06517319
0000e0 1a 55 04 3e 80 ed cf bd e6 cb 83 bd 9b 80 f2 bd
       0.12923089 -0.101527214 -0.06435375 -0.11840936
0000f0 28 c8 d2 3d f9 ed 05 3d 92 12 5a 3d 0b 81 2b 3d
       0.10292083 0.03269765 0.053240366 0.04187111

fc2.weight f4 [64, 64]
000000 9d 0e 69 3c dd 95 92 3d a7 47 36 3e 7b 0f 06 3f
       0.0142246755 0.071574904 0.1780077 0.5236737
000010 6f 7c a5 bc 4d a6 1d be ec 22 f3 3e d8 83 72 bd
       -0.020200936 -0.1539547 0.4748758 -0.059207767
000020 0e 32 8f bd 44 af 0f be 97 1f e0 be 8c 9f 99 bc
       -0.06991969 -0.14031702 -0.437741 -0.018752836
000030 d3 61 98 bd 72 28 d3 3c da 84 82 3d 0a 2f 92 be
       -0.074405335 0.025776122 0.06372996 -0.28551513
000040 da f3 10 be af d9 62 be b6 ac 95 3e e2 6c 24 be
       -0.14155522 -0.22153352 0.2923333 -0.1605716
000050 9b ae 0d be 7e 6b 0e be 17 d5 f3 3c d1 60 85 be
       -0.13836138 -0.13908193 0.029764695 -0.26050428
000060 f9 fb be be ce 4a 58 bd 86 d5 3e 3d d9 2b d2 be
       -0.37301615 -0.052805714 0.04659035 -0.41049078
000070 ac ab e8 3d 7b ea 8b 3d a6 87 f5 bd d6 8c 4b 3d
       0.11360869 0.06831833 -0.119887635 0.04969486
000080 32 16 b4 3d e3 e0 82 3e ae 66 22 3e a6 51 0c bd
       0.08793296 0.255622 0.15859482 -0.034257554
000090 02 3d 86 bc dc 6b 15 3e b5 27 a5 3d 4e 46 ff bd
       -0.016386513 0.14591926 0.08064214 -0.124645814
0000a0 15 12 00 3d ae dc b6 bd 15 1e 4b 3e 4b 21 f5 bd
       0.031267244 -0.0892881 0.19835694 -0.11969241
0000b0 3a 3d 30 3e bb 8e bc 3d c4 a6 64 3d 53 bc 1a 3e
       0.17210856 0.09206911 0.055823103 0.15110902
0000c0 01 5e 0a 3d 5d e9 2a bd dd 84 23 3d 3b 3d 3c bc
       0.033781055 -0.04172646 0.03992163 -0.011489208
0000d0 91 fd cd bd fe a4 b5 be db d0 96 be 8d a9 3e be
       -0.100581296 -0.35477442 -0.2945622 -0.18619366
0000e0 b0 96 d2 bd a9 03 60 bd 6a f5 d3 be 66 4b 65 be
       -0.102826476 -0.05469099 -0.41398174 -0.22392043
0000f0 a7 ae 9a 3d d6 e7 ba 3c 29 9e b6 3d 3b 41 da be
       0.075528435 0.022815626 0.089168854 -0.42627892
000100 56 88 0f bd c6 e4 03 3e db 2c 03 bf 52 11 0e be
       -0.03504213 0.12880239 -0.5124032 -0.13873795
000110 ba 99 03 3e d9 5e c4 3d 56 d1 8e be 71 67 e4 3d
       0.12851611 0.09588403 -0.27894086 0.111525424
000120 d5 5d 3c be 74 c4 1a bd 23 ad b6 3d 2d c5 23 3e
       -0.18395169 -0.03778501 0.08919742 0.15993185
000130 1e d3 21 3e 57 a5 48 3e 6c 7e f6 be c6 87 0b 3e
       0.15803191 0.19594322 -0.48143327 0.13626012
000140 c1 e3 7b bc 9f 50 93 bc 56 86 2f be d3 b2 00 3c
       -0.015374125 -0.01798278 -0.17141089 0.007855135
000150 4e 1e a4 3c 7a d6 e3 bd 5b 19 c9 3d 2d 0b 9c bd
       0.020033982 -0.111248925 0.09819289 -0.07619319
000160 ef b9 29 3e e6 0a 91 3c e7 e1 09 be 8d 59 cb bc
       0.16574834 0.017705392 -0.13465081 -0.024822975
000170 31 a9 53 3c 7d d8 d7 3c 02 5f a6 bc 55 c9 99 be
       0.012918756 0.026348347 -0.020308975 -0.30036417
000180 56 f6 e4 bd cd a0 3b bd aa 53 d0 bd 16 3a 8a 3d
       -0.11179797 -0.04580765 -0.10172208 0.0674936
000190 ec f2 e6 bd 87 00 07 3e af 5f 06 3f 69 c4 c8 3c
       -0.112768024 0.13183795 0.5248975 0.024507718
0001a0 c8 56 07 be 6e aa 0a be e9 4e 20 3e dd 21 c7 bd
       -0.13216698 -0.13541576 0.15655102 -0.09723256
0001b0 3f be ba bd 28 21 2a be d4 4b 18 be 4f 0f 0d 3d
       -0.09118318 -0.1661421 -0.14872676 0.034438428
0001c0 cb 3f 4a be a3 35 b1 bd 87 68 35 be 99 7d fc 3d
       -0.19750898 -0.086528085 -0.17715655 0.12328643
0001d0 e0 11 99 bd 89 e4 05 3f 66 22 86 be 4c 01 d1 bc
       -0.074741125 0.5230184 -0.2619812 -0.025513314
0001e0 f7 97 ab bd 47 82 48 3d 92 36 58 3e 8e 36 3a 3e
       -0.08378594 0.048952367 0.21114567 0.18184873
0001f0 f5 7a 5e bd e4 91 26 3d 32 89 1c bc 1f 79 67 3e
       -0.05431648 0.040666476 -0.009554194 0.22604798
000200 fd 20 ac bd f9 2c 34 be 11 e2 30 be 51 22 85 bd
       -0.084047295 -0.1759528 -0.17273737 -0.06500686
000210 8f 1a 18 be 0c ec 65 3d 15 03 80 bc 39 f3 d1 bd
       -0.14853881 0.056133315 -0.01562647 -0.10251469
000220 3e 80 da bd 72 36 15 3d c3 f2 d4 3e 17 bc cc 3d
       -0.106689915 0.036428876 0.41591462 0.09996813
000230 aa 54 a5 3d 49 e5 e7 3d ec f8 05 3d e8 93 48 be
       0.08072789 0.113230295 0.032708094 -0.19587672
000240 0f 37 a4 bd 87 5c 4c bd 72 e1 27 3d cc a7 2c be
       -0.08018314 -0.04989293 0.040986486 -0.16860884
000250 71 05 55 be f2 3b 69 bc 23 3c 9f bd 62 14 7a 3b
       -0.20802857 -0.0142354835 -0.07775142 0.0038159122
000260 38 a9 c1 bd eb 81 04 3d 5b ab 87 3e 12 f0 4e 3c
       -0.09456104 0.032350462 0.2649792 0.012630479
000270 56 19 b5 bc 1b 20 48 3e 57 dd 68 bc 3f 68 78 be
       -0.022106808 0.19543497 -0.014212928 -0.24258517
000280 7d 0d 84 bd 14 21 df bd 17 ec 97 be 55 d5 ca 3d
       -0.06447885 -0.10894981 -0.2967231 0.09903971
000290 45 64 b8 bc 79 5b 1a be fd 17 2c 3e f3 9e d6 3e
       -0.02250875 -0.15073957 0.16806026 0.41918144
0002a0 5b 40 e8 3d 0e aa bf bd 66 9b 9e bd 51 16 3b be
       0.113404 -0.09358607 -0.07744484 -0.18270232
0002b0 ae 93 54 be ce 6a 72 3d 6c d6 03 be 2c 88 34 be
       -0.2075946 0.059183888 -0.12874764 -0.1763007
0002c0 34 11 82 bd be 9b a8 be 03 f9 26 3d cd a4 24 bd
       -0.063509375 -0.32931322 0.04076482 -0.04019623
0002d0 15 59 71 be d2 9a 07 bf c0 8f 0e 3d 09 32 bd bd
       -0.23569138 -0.5297061 0.03480506 -0.09238059
0002e0 f4 37 47 be 4d 2e 6e be da f1 b8 bc 82 32 68 3e
       -0.19454938 -0.2325985 -0.022576261 0.22675517
0002f0 de 39 c9 3c 21 e3 5d 3e 08 cb 10 be b2 4c 63 be
       0.024563726 0.21668674 -0.1413995 -0.22197226
000300 c5 60 05 bf 95 08 35 bf b3 0e 6d be 67 2c 16 be
       -0.52100784 -0.7071622 -0.23150139 -0.14665376
000310 ab e9 bc 3d ea 24 05 3d 7e ed 8f 3d d6 03 a1 be
       0.09224256 0.032505907 0.0702772 -0.3144824
000320 04 cc 21 3d 22 ef c2 be 69 1e ea 3b 29 e3 57 3e
       0.039501205 -0.3807307 0.0071447385 0.21082748
000330 52 f5 17 be ba 37 5c bc 05 05 28 be ad 9c bb bd
       -0.14839676 -0.013441021 -0.16408165 -0.09160743
000340 93 b5 a2 3c 06 49 93 be b3 6c 9f 39 e0 8a 1c bf
       0.019861972 -0.2876665 0.0003040783 -0.61149406
000350 52 96 f8 be d8 2f 42 bc 8d 9b 6f 3e 9f 86 d4 be
       -0.48552185 -0.011852227 0.23399182 -0.41508958
000360 8e 59 21 3e f5 5a 22 be 03 51 d9 bd c8 f0 0f be
       0.15756819 -0.1585501 -0.10611155 -0.14056695
000370 79 c8 28 3b 65 34 22 be 40 71 1b 3e d7 45 84 be
       0.0025754257 -0.158403 0.1517992 -0.25834534
000380 50 09 f1 be 61 4b 12 3c 67 0b f8 bd 7b 81 69 3e
       -0.47077417 0.008929105 -0.1211155 0.22803299
000390 f1 f4 53 bd e2 39 22 3e 91 4e e9 3e 7d 5e 66 bc
       -0.051747266 0.15842393 0.45567754 -0.014060614
0003a0 bd c8 ba bd 2d 50 ff 3c b0 49 f1 3c 03 4c 9a be
       -0.09120319 0.03116616 0.029454082 -0.30136117
0003b0 74 54 f3 be 89 b6 66 3e 9a d9 c1 be 5b be a6 be
       -0.4752537 0.22530569 -0.3786133 -0.32567105
0003c0 94 5f 49 bd 53 a5 92 3e f7 50 0c be 6a 88 34 3e
       -0.049163416 0.28641757 -0.1370276 0.17630163
0003d0 11 85 e6 be 4c 4b cb be a6 58 9d 3e 2b a3 6f bc
       -0.45023397 -0.39705884 0.30731696 -0.014626305
0003e0 e4 72 0c be ad de b9 be 7c f6 99 be d6 11 4c 3e
       -0.13715702 -0.363027 -0.30070865 0.19928679
0003f0 20 de 15 bf 96 ea 21 3e 3b fa 1f bf 0b 60 cc be
       -0.5854206 0.15812144 -0.62491196 -0.39917025

fc2.bias f4 [64]
000000 b5 fe 37 bd 79 84 91 3d e0 cc 8c 3d 8d 60 15 3e
       -0.044920642 0.07105345 0.06875014 0.14587612
000010 bd a8 df 3d 0f dc 5b be 44 a9 1c bd 82 82 b0 bc
       0.10920856 -0.21470664 -0.03824736 -0.021546606
000020 3c c3 32 3e 5b 60 ec 3e fc 5d d2 bd 46 1b 68 3d
       0.17457289 0.46167263 -0.10271832 0.056666635
000030 15 dd 83 3e d0 64 2e bd 26 7e bc bd 1e 69 bd 3d
       0.2575461 -0.04257661 -0.092037484 0.09248565
000040 e1 17 0b bd 9a 6e 64 bd 49 a0 21 bd 07 79 20 3e
       -0.03395832 -0.05576954 -0.0394595 0.15671168
000050 60 62 8b 3e f9 e9 0f 3f 30 f1 88 be 17 e1 56 bd
       0.27223492 0.5621639 -0.2674651 -0.052460756
000060 97 db 9f bd c4 33 fd bd 8b e8 65 3d e5 e7 02 be
       -0.07805555 -0.12363389 0.056129973 -0.12783773
000070 3a d8 8e 3c da 9a 37 3e ae 01 9f 3d b9 0f 52 bd
       0.01743709 0.17930165 0.07763992 -0.051284526
000080 8a c4 35 3c ac 59 c9 3d 73 05 b9 bc 2a f3 73 3d
       0.011094222 0.09831557 -0.022585606 0.05955807
000090 00 74 0f bd 2f b2 22 be 0e 93 ec 3e 04 22 6c bd
       -0.035022736 -0.15888284 0.46205944 -0.057649627
0000a0 b5 27 91 b9 12 25 0b 3f 88 9b 4b 3e ae 6a d8 bd
       -0.0002768614 0.5435344 0.19883549 -0.105672225
0000b0 a1 b3 c4 3d 4b 1a c1 bd d6 04 9d 3e 95 6d 2e be
       0.09604574 -0.09428843 0.30667752 -0.1703399
0000c0 8d de c9 3d e4 d1 70 3c a9 48 03 bc 1a 3a ce 3e
       0.09856901 0.014698479 -0.008012929 0.40278703
0000d0 10 cb 09 bd 24 2f 75 be a0 0a ab 3d 75 b7 e8 3d
       -0.03364092 -0.23943764 0.08351636 0.11363117
0000e0 a3 19 66 be 92 9e 28 be ee 80 db bc 19 ca 07 bd
       -0.22470717 -0.1646674 -0.026794877 -0.03315172
0000f0 50 96 9d 3c ba 74 63 3e fc 69 21 3e 7b 67 80 bd
       0.019236714 0.22212496 0.15763086 -0.06269737

fc3.weight f4 [4, 64]
000000 76 6f c6 3d 5e 7e 52 3e ac 7e 3c 3d 7b c0 da be
       0.09689228 0.20556018 0.04601924 -0.42724976
000010 a0 02 2e 3f 1a 07 40 be 56 89 67 bd 57 cc aa be
       0.67972755 -0.18752709 -0.056527458 -0.33359024
000020 e2 c9 66 3e 18 d8 19 3e a3 ad 44 be a1 63 5b bd
       0.2253795 0.1502384 -0.19206862 -0.05356181
000030 97 9f 86 3e 59 ee 66 3d 30 50 1c bd c4 96 cd bd
       0.26293632 0.05637965 -0.03816241 -0.10038522
000040 27 18 d1 bc 0f c9 89 bd ab 0f 4a 3e 5a 7f 22 3e
       -0.025524212 -0.06727802 0.1973254 0.15868893
000050 1a 00 7d 3d 81 bf 3c 3e 91 ed 22 be 6c 41 e7 3e
       0.061767675 0.18432428 -0.15910937 0.451671
000060 17 71 ad be 30 a0 a8 bd 70 24 64 3d 92 64 74 be
       -0.33875343 -0.08233678 0.055698812 -0.2386649
000070 95 1d c5 3e 7f 52 5f 3d 1a 2f 0d 3d 13 f7 17 3e
       0.38499132 0.054522034 0.034468748 0.14840345
000080 f3 51 89 bd 1e e0 45 3e 6b 9a 33 3e f7 57 10 3e
       -0.06705084 0.19323775 0.17539375 0.14096056
000090 b0 c7 25 3e 76 60 15 be 5e 2d 42 3e 11 ed 35 3e
       0.16189456 -0.14587578 0.18962619 0.17766215
0000a0 f0 7d c5 3e ec 5c 48 3e 0e 9e ce 3d 6b b6 08 bc
       0.38572645 0.19566697 0.1008874 -0.008344273
0000b0 5c 20 4d 3e 1a b4 67 bd 1f 24 59 3e b5 52 9b 3d
       0.20031875 -0.056568243 0.21205185 0.075841345
0000c0 a9 5e ac 3c 5d f0 60 3e c9 98 90 3d e9 b1 66 3e
       0.021041231 0.21966691 0.070603915 0.22528805
0000d0 33 f5 84 3d a0 ab 8d be b9 55 36 3e 58 3e 1a 3e
       0.064920805 -0.27670002 0.17806138 0.15062845
0000e0 d4 5b b4 bd ea 2d 58 be 93 d8 83 3e d3 25 70 3e
       -0.08806577 -0.21111265 0.2575117 0.23451929
0000f0 e0 6b e4 bd b8 c0 25 3e 59 9b 6d 3d 91 4d 81 3d
       -0.11153388 0.16186798 0.05800948 0.06313623
000100 6e 8e 95 3e 97 65 3e 3e 38 a0 99 3d ad 89 f6 be
       0.29210228 0.18593441 0.075012624 -0.48151913
000110 af 8a d3 3e d2 ba 61 be 00 54 05 3f 76 33 71 bd
       0.41316745 -0.22043923 0.520813 -0.058886968
000120 77 bb 34 3e ae cb 06 3e ab 42 8b 3d 32 90 61 bd
       0.17649637 0.13163635 0.06799825 -0.055069156
000130 8f 1a 72 3e 1b 28 46 3e 60 de a5 bc ed a8 69 3c
       0.23642944 0.19351237 -0.020247638 0.014261466
000140 d5 f1 cd bd d7 60 2c 3d 87 fb 79 3e 2b bc 4a 3e
       -0.100558914 0.04208454 0.24412356 0.19798343
000150 a1 eb 49 3e 30 08 39 3e 7c 67 15 be 19 b8 f3 3e
       0.19718792 0.1806953 -0.14590257 0.47601393
000160 36 50 84 bd 46 a1 72 bd cf 8d 55 3d 68 71 fe bd
       -0.064606115 -0.059235834 0.052137192 -0.12423974
000170 7f 48 ce 3e 2c 85 e2 3d c9 0b 04 3e 50 50 4e 3e
       0.40289685 0.11060557 0.1289512 0.20147824
000180 d6 88 0d be cd 62 3c 3e 3d 3a d1 3e 4b 53 d9 3d
       -0.1382173 0.18397065 0.40864745 0.1061159
000190 05 72 32 3e f6 5e 41 be 7b ee 2c 3e b3 b2 e0 3e
       0.17426307 -0.18883881 0.16887848 0.43886337
0001a0 58 56 b6 3e 7d 8e 42 3e 12 19 cc 3d da 6e 77 3d
       0.3561275 0.18999667 0.09965719 0.06040845
0001b0 49 72 23 3e b0 ce b4 3c 86 4f 12 3e 83 e4 17 bd
       0.15961565 0.022071213 0.14288148 -0.03708316
0001c0 af e4 12 3e 3b d2 7e 3e 3f 83 b5 3d de 79 53 3e
       0.14345048 0.24884884 0.08862924 0.20651957
0001d0 25 b9 b9 3d aa 97 7c be 7c 9f 57 3e 47 9c 0b 3e
       0.09068517 -0.2466723 0.21056932 0.13633834
0001e0 3c a7 27 be 17 be e8 bd bb 49 8e bd 31 8f 81 3e
       -0.16372389 -0.11364382 -0.06947657 0.2530456
0001f0 e1 09 d7 bd 36 31 ce 3d 03 4f d2 be a5 93 68 bd
       -0.10499931 0.1006798 -0.41075906 -0.05678143
000200 58 88 3a 3e 94 78 ce 3d ad cc 2f 3e e4 59 b2 3e
       0.18216074 0.10081592 0.17167921 0.34834206
000210 2f fa 4e 3e fc 0b 2e be c6 a9 68 be 97 1e 5d be
       0.20212625 -0.16996759 -0.22721013 -0.215937
000220 39 54 70 3e 98 d3 02 3e c5 35 20 be 15 98 9f 3d
       0.23469628 0.12776029 -0.15645511 0.07792679
000230 89 32 8c 3e 39 b9 bf 3d a7 b4 32 bd fb 9d 36 3e
       0.27382305 0.093615 -0.043629315 0.17833702
000240 70 bd c6 3c f1 65 4e 3d 3e 28 97 bd bc 18 8a 3d
       0.024260253 0.050390188 -0.073807225 0.06742999
000250 4d c9 72 3d 7a 51 88 3e f4 16 1e be f6 0d af 3e
       0.059274007 0.26624662 -0.15438443 0.3419034
000260 a2 39 53 3c 4b 12 18 bd 17 52 44 be 5e 6d c4 be
       0.012892159 -0.03712682 -0.1917194 -0.3836469
000270 33 40 76 3e 24 02 21 3e a3 82 10 3f 05 6e 90 3a
       0.24047928 0.15723473 0.56449336 0.0011019117
000280 3c 05 9e be 7c ed 6e 3e 1f 9e 15 3f 4c 5b d8 3e
       -0.3086337 0.2333278 0.584444 0.42257154
000290 02 a9 11 3e e2 6d 56 be 56 8b 14 3e 09 1e a7 be
       0.14224628 -0.20940354 0.14506277 -0.32640103
0002a0 da 76 7f 3e 1a d8 39 3e 0b e8 1f 3e fa b3 71 3d
       0.24947682 0.18148842 0.15615861 0.05900953
0002b0 4a 85 2f 3e 11 fd 8f be 27 3b 23 3e 28 7f 97 3d
       0.1714069 -0.28122762 0.15940534 0.073973
0002c0 bb 1b 61 3e a8 73 f5 3d 45 d3 74 3e 89 bb 71 3e
       0.21983235 0.1198495 0.23908718 0.23606695
0002d0 e0 dc d8 be ee 93 e7 bc bf d3 e2 3e 34 85 06 3e
       -0.42356014 -0.02826878 0.44302174 0.1313675
0002e0 42 c1 d1 bd 26 db c5 bd b3 6b 12 3d 1e 6b 30 3e
       -0.10241939 -0.0966094 0.03574724 0.17228362
0002f0 f9 c4 86 be f5 61 0f 3e 29 67 14 be 47 ec e2 3e
       -0.26322153 0.14002211 -0.14492477 0.4432089
000300 98 d7 c9 3e 28 db 36 3e 35 17 8c 3e 2d b7 dd bd
       0.39422297 0.17857039 0.27361456 -0.10825954
000310 e9 cd 8b 3e 29 96 3f be 05 75 6a 3c 82 64 89 bd
       0.27305534 -0.18709625 0.014310126 -0.067086235
000320 ae 5f 54 3e 1b a9 38 3e cd 17 90 3b d4 85 a0 be
       0.20739624 0.18033259 0.0043973685 -0.31352103
000330 ee 2d 97 3e 6c ca 8f 3e 00 be 72 3d 81 89 1f 3e
       0.2952723 0.28084123 0.05926323 0.15579797
000340 72 70 f0 3d a6 cd 8d 3e f4 a0 c5 3e ce 4e e9 3d
       0.11740197 0.2769596 0.3859936 0.11391984
000350 40 a9 20 3d f5 c9 5d 3e d1 f6 4f be 1c f2 3b 3f
       0.03922391 0.21659072 -0.20308997 0.73416305
000360 59 53 ed 3c 7f 3c c1 bd b7 a3 96 be be 86 b0 3c
       0.028970407 -0.09435367 -0.2942178 0.021548625
000370 4b 85 88 3e 2f 34 a9 bc b0 fc c3 3d 3d 95 9c 3e
       0.26664194 -0.020654766 0.09569681 0.3058261
000380 23 0a fc be 54 29 dd 3e 7a 95 01 3e 5e d6 03 3e
       -0.49226484 0.43195593 0.12654677 0.12874743
000390 f3 d2 6f bd c9 ff e8 bd d1 a5 51 3e 75 1b 05 3f
       -0.058550786 -0.11376912 0.2047341 0.5199502
0003a0 57 51 a5 3d 97 cb 63 3e e8 72 30 3e 98 63 52 be
       0.08072155 0.22245632 0.17231333 -0.20545805
0003b0 d3 f4 fa 3e 59 ec 71 be b3 1d d2 3d 90 f0 c8 3c
       0.4901491 -0.23625316 0.10259571 0.024528772
0003c0 ad dc d1 3d 90 88 17 bd 1d 29 36 3e 0c b8 35 3e
       0.10247169 -0.03699547 0.17789121 0.1774599
0003d0 23 5a ce be 21 0c 59 be 1d b5 3c 3e ef 6c 45 3e
       -0.40303144 -0.21196033 0.18428464 0.19279836
0003e0 74 6c ff bd 68 bd 98 be bb 60 d3 be 83 c0 fc 3d
       -0.12471858 -0.29832006 -0.41284737 0.12341406
0003f0 d9 15 b7 be c9 f4 c2 3d 7f 0c 0b bf b0 80 08 be
       -0.35758856 0.09519345 -0.5431594 -0.1333034

fc3.bias f4 [4]
000000 5b 76 a9 3e 7b 7b 88 3e 35 b6 3c 3e b9 34 5e 3e
       0.3309811 0.26656708 0.18428881 0.216998
